…
  To activate any of conda's environments, then do:
    conda activate <environment>
Configurations for job:
--rnd_seed 2304 --learning_rate 5E-4 --beta 5E-2 --save_path ./output/seed_2304/lr_5E-4/beta_5E-2
DeepProMP(sinus_main){
	learning_rate: 0.0005
	epochs: 1000
	beta: 0.05
	save_path: ./output/seed_2304/lr_5E-4/beta_5E-2
encoder: EncoderDeepProMP {
	neurons: [2, 10, 20, 20, 10, 4]
	input_dimension: 2
	hidden_neurons: [10, 20, 20, 10]
	latent_variable_dimension: 2
	activation_function: <class 'torch.nn.modules.activation.ReLU'>
	trajectory_state_class: <class 'moppy.trajectory.state.sinus_state.SinusState'>
	net: Sequential(
  (0): Linear(in_features=2, out_features=10, bias=True)
  (1): ReLU()
  (2): Linear(in_features=10, out_features=20, bias=True)
  (3): ReLU()
  (4): Linear(in_features=20, out_features=20, bias=True)
  (5): ReLU()
  (6): Linear(in_features=20, out_features=10, bias=True)
  (7): ReLU()
  (8): Linear(in_features=10, out_features=4, bias=True)
)
}
decoder: DecoderDeepProMP() {
	neurons: [3, 10, 20, 20, 10, 1]
	latent_variable_dimension: 2
	hidden_neurons: [10, 20, 20, 10]
	output_dimension: 1
	activation_function: <class 'torch.nn.modules.activation.Tanh'>
	trajectory_state_class: <class 'moppy.trajectory.state.sinus_state.SinusState'>
	net: Sequential(
  (0): Linear(in_features=3, out_features=10, bias=True)
  (1): Tanh()
  (2): Linear(in_features=10, out_features=20, bias=True)
  (3): Tanh()
  (4): Linear(in_features=20, out_features=20, bias=True)
  (5): Tanh()
  (6): Linear(in_features=20, out_features=10, bias=True)
  (7): Tanh()
  (8): Linear(in_features=10, out_features=1, bias=True)
)
}
}
Total set:  50
Training set: 45
Validation set: 5
Epoch   1/1000 (2.23028564453125s): validation loss = 22.016778647899628, train_loss = 15.915742659568787, mse = 15.915742659568787, kl = 10.419374044625872
Epoch   2/1000 (2.2032785415649414s): validation loss = 21.190694376826286, train_loss = 15.439158513148625, mse = 15.439158513148625, kl = 10.002312107839817
…
