…
  To activate any of conda's environments, then do:
    conda activate <environment>
Configurations for job:
--rnd_seed 329 --learning_rate 1E-3 --beta 1E-2 --save_path ./output/seed_329/lr_1E-3/beta_1E-2
DeepProMP(sinus_main){
	learning_rate: 0.001
	epochs: 1000
	beta: 0.01
	save_path: ./output/seed_329/lr_1E-3/beta_1E-2
encoder: EncoderDeepProMP {
	neurons: [2, 10, 20, 20, 10, 4]
	input_dimension: 2
	hidden_neurons: [10, 20, 20, 10]
	latent_variable_dimension: 2
	activation_function: <class 'torch.nn.modules.activation.ReLU'>
	trajectory_state_class: <class 'moppy.trajectory.state.sinus_state.SinusState'>
	net: Sequential(
  (0): Linear(in_features=2, out_features=10, bias=True)
  (1): ReLU()
  (2): Linear(in_features=10, out_features=20, bias=True)
  (3): ReLU()
  (4): Linear(in_features=20, out_features=20, bias=True)
  (5): ReLU()
  (6): Linear(in_features=20, out_features=10, bias=True)
  (7): ReLU()
  (8): Linear(in_features=10, out_features=4, bias=True)
)
}
decoder: DecoderDeepProMP() {
	neurons: [3, 10, 20, 20, 10, 1]
	latent_variable_dimension: 2
	hidden_neurons: [10, 20, 20, 10]
	output_dimension: 1
	activation_function: <class 'torch.nn.modules.activation.Tanh'>
	trajectory_state_class: <class 'moppy.trajectory.state.sinus_state.SinusState'>
	net: Sequential(
  (0): Linear(in_features=3, out_features=10, bias=True)
  (1): Tanh()
  (2): Linear(in_features=10, out_features=20, bias=True)
  (3): Tanh()
  (4): Linear(in_features=20, out_features=20, bias=True)
  (5): Tanh()
  (6): Linear(in_features=20, out_features=10, bias=True)
  (7): Tanh()
  (8): Linear(in_features=10, out_features=1, bias=True)
)
}
}
Total set:  50
Training set: 45
Validation set: 5
Epoch   1/1000 (1.965057373046875s): validation loss = 21.180979469418524, train_loss = 15.607881211572224, mse = 15.607881211572224, kl = 10.259841442430238
Epoch   2/1000 (1.9654741287231445s): validation loss = 20.0596744120121, train_loss = 14.969430592987273, mse = 14.969430592987273, kl = 9.518360431929567
…
