…
  To activate any of conda's environments, then do:
    conda activate <environment>
Configurations for job:
--rnd_seed 329 --learning_rate 2E-3 --beta 1E-0 --save_path ./output/seed_329/lr_2E-3/beta_1E-0
DeepProMP(sinus_main){
	learning_rate: 0.002
	epochs: 1000
	beta: 1.0
	save_path: ./output/seed_329/lr_2E-3/beta_1E-0
encoder: EncoderDeepProMP {
	neurons: [2, 10, 20, 20, 10, 4]
	input_dimension: 2
	hidden_neurons: [10, 20, 20, 10]
	latent_variable_dimension: 2
	activation_function: <class 'torch.nn.modules.activation.ReLU'>
	trajectory_state_class: <class 'moppy.trajectory.state.sinus_state.SinusState'>
	net: Sequential(
  (0): Linear(in_features=2, out_features=10, bias=True)
  (1): ReLU()
  (2): Linear(in_features=10, out_features=20, bias=True)
  (3): ReLU()
  (4): Linear(in_features=20, out_features=20, bias=True)
  (5): ReLU()
  (6): Linear(in_features=20, out_features=10, bias=True)
  (7): ReLU()
  (8): Linear(in_features=10, out_features=4, bias=True)
)
}
decoder: DecoderDeepProMP() {
	neurons: [3, 10, 20, 20, 10, 1]
	latent_variable_dimension: 2
	hidden_neurons: [10, 20, 20, 10]
	output_dimension: 1
	activation_function: <class 'torch.nn.modules.activation.Tanh'>
	trajectory_state_class: <class 'moppy.trajectory.state.sinus_state.SinusState'>
	net: Sequential(
  (0): Linear(in_features=3, out_features=10, bias=True)
  (1): Tanh()
  (2): Linear(in_features=10, out_features=20, bias=True)
  (3): Tanh()
  (4): Linear(in_features=20, out_features=20, bias=True)
  (5): Tanh()
  (6): Linear(in_features=20, out_features=10, bias=True)
  (7): Tanh()
  (8): Linear(in_features=10, out_features=1, bias=True)
)
}
}
Total set:  50
Training set: 45
Validation set: 5
Epoch   1/1000 (2.1468288898468018s): validation loss = 20.088378018140794, train_loss = 15.341756683919165, mse = 15.341756683919165, kl = 10.466235873963367
Epoch   2/1000 (2.1749274730682373s): validation loss = 19.931781136989592, train_loss = 14.80922639105055, mse = 14.80922639105055, kl = 9.36645087816984
…
