…
  File "/home/c703/c7031465/bachelor/moppy/moppy/deep_promp/deep_promp.py", line 86, in __init__
    os.makedirs(save_path)
  File "<frozen os>", line 225, in makedirs
FileExistsError: [Errno 17] File exists: './output/seed_220/lr_1E-4/beta_1E-2'
DeepProMP(sinus_main){
	learning_rate: 0.0001
	epochs: 1000
	beta: 0.01
	save_path: ./output/seed_220/lr_1E-4/beta_1E-2
encoder: EncoderDeepProMP {
	neurons: [2, 10, 20, 20, 10, 4]
	input_dimension: 2
	hidden_neurons: [10, 20, 20, 10]
	latent_variable_dimension: 2
	activation_function: <class 'torch.nn.modules.activation.ReLU'>
	trajectory_state_class: <class 'moppy.trajectory.state.sinus_state.SinusState'>
	net: Sequential(
  (0): Linear(in_features=2, out_features=10, bias=True)
  (1): ReLU()
  (2): Linear(in_features=10, out_features=20, bias=True)
  (3): ReLU()
  (4): Linear(in_features=20, out_features=20, bias=True)
  (5): ReLU()
  (6): Linear(in_features=20, out_features=10, bias=True)
  (7): ReLU()
  (8): Linear(in_features=10, out_features=4, bias=True)
)
}
decoder: DecoderDeepProMP() {
	neurons: [3, 10, 20, 20, 10, 1]
	latent_variable_dimension: 2
	hidden_neurons: [10, 20, 20, 10]
	output_dimension: 1
	activation_function: <class 'torch.nn.modules.activation.Tanh'>
	trajectory_state_class: <class 'moppy.trajectory.state.sinus_state.SinusState'>
	net: Sequential(
  (0): Linear(in_features=3, out_features=10, bias=True)
  (1): Tanh()
  (2): Linear(in_features=10, out_features=20, bias=True)
  (3): Tanh()
  (4): Linear(in_features=20, out_features=20, bias=True)
  (5): Tanh()
  (6): Linear(in_features=20, out_features=10, bias=True)
  (7): Tanh()
  (8): Linear(in_features=10, out_features=1, bias=True)
)
}
}
Total set:  50
Training set: 45
Validation set: 5
Epoch   1/1000 (1.922102451324463s): validation loss = 22.580126076936722, train_loss = 16.057511362102296, mse = 16.057511362102296, kl = 9.497416691236335
Epoch   2/1000 (1.9175291061401367s): validation loss = 22.423628914356232, train_loss = 15.962249075041877, mse = 15.962249075041877, kl = 9.239911997965983
…
